…
    "2. I decided to augment every picture. The reason for doing this is because it lowered my training and validation loss by approximatly 20%. The augmentation was performed with the help of random horizontal flipping and rotation of 10 degrees. "
   ]
  },
  {
   "cell_type": "markdown",
   "metadata": {},
   "source": [
    "### (IMPLEMENTATION) Model Architecture\n",
    "\n",
    "Create a CNN to classify dog breed.  Use the template in the code cell below."
   ]
  },
  {
   "cell_type": "code",
   "execution_count": 48,
   "metadata": {},
   "outputs": [
    {
     "name": "stdout",
     "output_type": "stream",
     "text": [
      "CNN(\n",
      "  (conv1): Sequential(\n",
      "    (0): Conv2d(3, 16, kernel_size=(3, 3), stride=(1, 1), padding=(1, 1))\n",
      "    (1): ReLU(inplace)\n",
      "  )\n",
      "  (conv2): Sequential(\n",
      "    (0): Conv2d(16, 32, kernel_size=(3, 3), stride=(1, 1), padding=(1, 1))\n",
      "    (1): ReLU(inplace)\n",
      "    (2): MaxPool2d(kernel_size=2, stride=2, padding=0, dilation=1, ceil_mode=False)\n",
      "    (3): Dropout(p=0.25)\n",
      "  )\n",
      "  (conv3): Sequential(\n",
      "    (0): Conv2d(32, 52, kernel_size=(3, 3), stride=(1, 1), padding=(1, 1))\n",
      "    (1): ReLU(inplace)\n",
      "    (2): MaxPool2d(kernel_size=2, stride=4, padding=0, dilation=1, ceil_mode=False)\n",
      "  )\n",
      "  (classifier): Sequential(\n",
      "    (0): Linear(in_features=40768, out_features=10000, bias=True)\n",
      "    (1): ReLU(inplace)\n",
      "    (2): Dropout(p=0.5)\n",
      "    (3): Linear(in_features=10000, out_features=1000, bias=True)\n",
      "    (4): ReLU(inplace)\n",
      "    (5): Dropout(p=0.5)\n",
      "    (6): Linear(in_features=1000, out_features=133, bias=True)\n",
      "  )\n",
      ")\n"
     ]
    }
   ],
   "source": [
    "import torch.nn as nn\n",
    "import torch.nn.functional as F\n",
    "\n",
    "class CNN(nn.Module):\n",
    "    def __init__(self):\n",
    "        super(CNN, self).__init__()\n",
    "        self.conv1 = nn.Sequential(         \n",
    "            nn.Conv2d(\n",
    "                in_channels=3,              \n",
…
    "                   'valid': valid_loader, \n",
    "                   'test': test_loader}"
   ]
  },
  {
   "cell_type": "markdown",
   "metadata": {},
   "source": [
    "### (IMPLEMENTATION) Model Architecture\n",
    "\n",
    "Use transfer learning to create a CNN to classify dog breed.  Use the code cell below, and save your initialized model as the variable `model_transfer`."
   ]
  },
  {
   "cell_type": "code",
   "execution_count": 55,
   "metadata": {},
   "outputs": [
    {
     "name": "stdout",
     "output_type": "stream",
     "text": [
      "VGG(\n",
      "  (features): Sequential(\n",
      "    (0): Conv2d(3, 64, kernel_size=(3, 3), stride=(1, 1), padding=(1, 1))\n",
      "    (1): ReLU(inplace)\n",
      "    (2): Conv2d(64, 64, kernel_size=(3, 3), stride=(1, 1), padding=(1, 1))\n",
      "    (3): ReLU(inplace)\n",
      "    (4): MaxPool2d(kernel_size=2, stride=2, padding=0, dilation=1, ceil_mode=False)\n",
      "    (5): Conv2d(64, 128, kernel_size=(3, 3), stride=(1, 1), padding=(1, 1))\n",
      "    (6): ReLU(inplace)\n",
      "    (7): Conv2d(128, 128, kernel_size=(3, 3), stride=(1, 1), padding=(1, 1))\n",
      "    (8): ReLU(inplace)\n",
      "    (9): MaxPool2d(kernel_size=2, stride=2, padding=0, dilation=1, ceil_mode=False)\n",
      "    (10): Conv2d(128, 256, kernel_size=(3, 3), stride=(1, 1), padding=(1, 1))\n",
      "    (11): ReLU(inplace)\n",
      "    (12): Conv2d(256, 256, kernel_size=(3, 3), stride=(1, 1), padding=(1, 1))\n",
      "    (13): ReLU(inplace)\n",
      "    (14): Conv2d(256, 256, kernel_size=(3, 3), stride=(1, 1), padding=(1, 1))\n",
      "    (15): ReLU(inplace)\n",
      "    (16): MaxPool2d(kernel_size=2, stride=2, padding=0, dilation=1, ceil_mode=False)\n",
      "    (17): Conv2d(256, 512, kernel_size=(3, 3), stride=(1, 1), padding=(1, 1))\n",
      "    (18): ReLU(inplace)\n",
      "    (19): Conv2d(512, 512, kernel_size=(3, 3), stride=(1, 1), padding=(1, 1))\n",
      "    (20): ReLU(inplace)\n",
      "    (21): Conv2d(512, 512, kernel_size=(3, 3), stride=(1, 1), padding=(1, 1))\n",
      "    (22): ReLU(inplace)\n",
      "    (23): MaxPool2d(kernel_size=2, stride=2, padding=0, dilation=1, ceil_mode=False)\n",
      "    (24): Conv2d(512, 512, kernel_size=(3, 3), stride=(1, 1), padding=(1, 1))\n",
      "    (25): ReLU(inplace)\n",
      "    (26): Conv2d(512, 512, kernel_size=(3, 3), stride=(1, 1), padding=(1, 1))\n",
      "    (27): ReLU(inplace)\n",
      "    (28): Conv2d(512, 512, kernel_size=(3, 3), stride=(1, 1), padding=(1, 1))\n",
      "    (29): ReLU(inplace)\n",
      "    (30): MaxPool2d(kernel_size=2, stride=2, padding=0, dilation=1, ceil_mode=False)\n",
      "  )\n",
      "  (classifier): Sequential(\n",
      "    (0): Linear(in_features=25088, out_features=4096, bias=True)\n",
      "    (1): ReLU(inplace)\n",
      "    (2): Dropout(p=0.5)\n",
      "    (3): Linear(in_features=4096, out_features=4096, bias=True)\n",
      "    (4): ReLU(inplace)\n",
      "    (5): Dropout(p=0.5)\n",
      "    (6): Linear(in_features=4096, out_features=133, bias=True)\n",
      "  )\n",
      ")\n"
     ]
    }
   ],
   "source": [
    "import torchvision.models as models\n",
    "import torch.nn as nn\n",
    "\n",
    "\n",
    "## TODO: Specify model architecture \n",
    "model_transfer = models.vgg16(pretrained=True)\n",
    "\n",
    "for param in model_transfer.features.parameters():\n",
    "    param.require_grad = False\n",
…
